modeloDEC.tflite (tflite, 5900 bytes, 6 tensors)

arith.constant f4 [3, 16]
00000000: 9c39 893d 1914 9a3e 052f 683f 6b57 88bf
00000010: fde4 20bf 6203 a03f aec2 2cc0 0e3c 313f
00000020: 1d86 ce3e 8c04 1ec0 56b2 73bf d20a 38c0
00000030: 2b2f 2dc0 3784 5c3e 677e b0be b97f 903f
00000040: a44b 95bf ee7b 153e eed1 9ebf 99cb 86bf
00000050: 6ce5 8abf f727 7fbf 031e 693e ec8a fa3e
00000060: 05b0 503e cb66 19bd b16e a4bf 5b51 9a3e
00000070: 8109 f13e a35d a83c b5ad a1bf 345a 84bf
00000080: 6066 c63f 9dc1 2ac0 023a 6bbf f28e ae3f
00000090: 1c51 a63f 48f1 f9be f7d3 e63e 8e7b 3dc0
000000a0: f2d5 37c0 0ba4 b2bd ac98 8a3f d7c7 af3e
000000b0: a504 133f bc82 42c0 7170 ae3f bd41 1abf
0.06700441 0.30093458 0.90696746 -1.0651678 -0.6284941 1.2501032 -2.6993823 0.6923226
0.40336695 -2.4690275 -0.95193994 -2.8756604 -2.706004 0.21534811 -0.34471437 1.1288978
-1.1663709 0.14598057 -1.2407815 -1.0530883 -1.0851264 -0.99670357 0.22765355 0.48934114
0.20379646 -0.037451547 -1.284628 0.30140194 0.47077563 0.020552462 -1.2631136 -1.0340028
1.5499992 -2.6680672 -0.9188539 1.3637373 1.2993503 -0.48816895 0.4508359 -2.9606662
-2.8724332 -0.08722695 1.0827842 0.34332153 0.5742896 -3.0392294 1.3628064 -0.6025656

arith.constant1 f4 [16, 32]
00000000: d35b b1bf e705 4fbe f362 8abf 06e3 173d
00000010: 500a c63d 4910 90bf eb57 803f e8aa b2bf
00000020: aebc 1dbe 1930 693e d98f 113e ae8b 2ebf
00000030: 29cc 813e 676a da3e f441 8fbe 5ac0 65bf
00000040: 5f4d 363e f1b4 f93d 2050 bd3e a6d5 39bf
00000050: 35dc febd eb4e 48be ec84 123e deb2 3f3e
00000060: a58f 8abf 015e 7d3e 8af8 243d e1b8 0a3e
00000070: bec3 933e 16e2 0f3f eaf7 8d3d bcc5 a5bf
00000080: c89e f03f 1776 903d 3e65 8e3f b87c 55be
00000090: 0f5f dfba 1da4 bb3f 8f0c dbbe 6023 fb3f
000000a0: 90eb c3bd 875b bfbd 393b 1d3d f679 493f
000000b0: 6bd6 33be cd8c 81bd a7cb 133f d1c9 e23f
000000c0: 2ba5 123e 94be 80bd 38c2 d2bd ac8b 713f
000000d0: b4bf 10bf f40e 0cbe 5a30 57be 3f3a b13e
000000e0: 1a18 d33f 1e5f 1e3d 5a65 97bd 81ce ccbd
000000f0: 8ad4 0bbe 69ad aebe 02bc 97bd 5428 b33f
00000100: 58d0 8d3e c247 08be 34bf 2d3e 74e5 01bf
00000110: 1864 70bf b9a6 a73e 0fe9 d7bd 2f66 963e
00000120: 0860 3dbd a03a 30bf 3f11 4dbe 932e 5f3d
00000130: 10f4 f9be d6a4 67bf 2b50 94be 15e9 143f
00000140: 6c4b d83d 606a 49bf 805a 82bf e3de 9d3e
00000150: bcb1 903f e82c 79bd b59d 3ebf 9713 aa3e
00000160: d65a 2d3f 246b 74bf 7f3c 26bf b5d1 3ebf
00000170: 440e 16bf c1fc 25bd 3550 38bf 8fac 163f
00000180: 1067 cebf 8d73 3a3e 9db2 a8bf 11ae ab3d
00000190: 1362 dd3e a90c a0bf a88e 663f 3622 96bf
000001a0: 9311 a73e 5836 3c3e d4ef 5a3d 7eac 3cbf
000001b0: e8f1 d93d 8553 af3e 0ca5 e9be 8cb1 7bbf
000001c0: 05da adbe e42b 0d3e 3794 1e3e 83dd 64bf
000001d0: 95c8 3c3e 6c6a ea3d 357d bc3e 8955 9cbe
000001e0: 3cc0 97bf 162a d93d 2c76 553e 3baf 763e
000001f0: 5459 fc3e d9d2 e53e d208 8d3d 010e 87bf
00000200: 5bce a4bf b9de c3be 76f6 86bf f5c5 f93d
00000210: 990a 043e 6118 87bf 7673 863f d633 91bf
00000220: 2c1e 82bd 7d60 713e 6b38 3c3e df6d dcbe
00000230: 098c 963d 495e e83e 8a10 38be c8bb 8bbf
00000240: 8835 c4bd 0c5b ff3d 2426 9e3e c058 4abf
00000250: c932 a13d e37b 87be d0e5 ab3e 4160 35be
00000260: b861 8bbf 67cf 0b3d 2e5b 173e bc51 0d3e
00000270: 2f51 113f 9be9 8a3e f8e0 a73e 917f b8bf
00000280: 9ac8 fc3e 0914 223e 26e9 c83e b8da 3cbf
00000290: bd9d fabe 831e 253f 8e25 2bbd f822 233f
000002a0: 5950 9d3e 2e5c 0abf cc10 0e3e 5670 283e
000002b0: 9576 3ebf 0167 60bf e7ed cbbd 7f14 043f
000002c0: 5b9c 063e 1dfb ecbe 0c15 57bf 7026 ea3e
000002d0: 45a2 793f 07e8 09be ff74 70bf 48ad 86bd
000002e0: 86c7 a73e 694d 00bf d14e 5ebf 451f 66bf
000002f0: cd51 9ebe c0d4 03bd e874 26bf c307 043f
00000300: 17af cdbd ac32 2c3e bbbd 86be 8005 703f
00000310: 78c7 123f eaec 5abe f3b4 b93f 89bc 5abe
00000320: d0dd 233d 33db 1b3f c8a4 93be 9a4a acbe
00000330: 8e7b 363f a5b0 9c3f de22 52bd 1fa7 fbbc
00000340: e913 d03d f8c9 2b3f deeb 093f 4fa9 fabd
00000350: 58a7 09bd c847 7fbe c663 973f c6c3 643e
00000360: 0253 c8bd 69f2 2a3f 2e09 003f aa19 a23e
00000370: 783e 5d3f ddc4 073f 90b1 1c3f 2117 babe
00000380: 5142 b33f d3b4 03be d578 173f 7e04 a4bd
00000390: d696 cabd e130 d23f cafa 94be 7487 983f
000003a0: 3c85 a53d 6302 98bd 4b87 6dbe 5759 673e
000003b0: f6d6 83bc 4244 03be d54f 13bd 34a7 cb3f
000003c0: 5cbe 96be 0f53 08be adce 08be e6b4 9f3f
000003d0: 6c51 3c40 164c e6bd 32c2 92bd 1489 d1bd
000003e0: 0929 9d3f d9e4 14be b866 80bd 1144 9dbc
000003f0: 58d2 a9be dc48 05be 9877 dbbd 8280 c43f
-1.3856148 -0.20217095 -1.0811447 0.03708174 0.09669936 -1.125497 1.002683 -1.3958406
-0.15404007 0.22772254 0.1421503 -0.68181884 0.25351074 0.42659304 -0.27980006 -0.8974663
0.17802952 0.12192715 0.36975193 -0.72591627 -0.12444345 -0.19561355 0.14308518 0.18720576
-1.0825087 0.24742891 0.040276088 0.13547088 0.28860277 0.56204355 0.069320515 -1.2950969
1.8798456 0.07053774 1.1124647 -0.20848358 -0.001704188 1.4659458 -0.4278302 1.962017
-0.09566414 -0.09343629 0.038386557 0.7870172 -0.17562263 -0.06325684 0.57732624 1.771784
0.14320819 -0.0628635 -0.102909505 0.9435375 -0.56542516 -0.13677579 -0.21014538 0.3461475
1.649173 0.03866493 -0.07392378 -0.10000325 -0.13655296 -0.34116676 -0.074089065 1.3996682
0.27698016 -0.13308623 0.1696747 -0.5074074 -0.9390273 0.32744387 -0.10542499 0.29374835
-0.04623416 -0.68839455 -0.2002611 0.054487776 -0.48819017 -0.90485895 -0.28967413 0.58168155
0.105612606 -0.7867794 -1.0183868 0.30834112 1.130424 -0.06083384 -0.7445939 0.3321807
0.6771673 -0.95475984 -0.6493606 -0.7453874 -0.5861552 -0.040524248 -0.71997386 0.58857054
-1.6125202 0.18208142 -1.3179508 0.0838281 0.43238887 -1.2503864 0.90061426 -1.172919
0.32630596 0.18380105 0.053451374 -0.737007 0.10641843 0.34243408 -0.45633733 -0.9831779
-0.33955398 0.13786274 0.15486227 -0.894005 0.18435891 0.114460796 0.36814275 -0.30534008
-1.185554 0.106037304 0.2084586 0.24090283 0.49286902 0.44887426 0.06886448 -1.0551149
-1.2875475 -0.3825586 -1.0543964 0.121959604 0.12894668 -1.0554315 1.0503986 -1.1343944
-0.06353411 0.23571964 0.18380897 -0.43052575 0.07350928 0.45384434 -0.17975059 -1.0916681
-0.09580523 0.12468538 0.30888474 -0.7904167 0.078710146 -0.26461706 0.3357377 -0.17712499
-1.0889196 0.03413334 0.14780876 0.1380071 0.567645 0.27131352 0.32788825 -1.441393
0.49371797 0.15827955 0.39240378 -0.7377124 -0.4894847 0.6449968 -0.04178386 0.63725233
0.30725363 -0.54046905 0.13873595 0.16449103 -0.7439969 -0.8765717 -0.09957486 0.51593775
0.13145582 -0.46285334 -0.8401649 0.4573245 0.9751323 -0.13467418 -0.9392852 -0.065760195
0.32769412 -0.5011812 -0.86839014 -0.89891464 -0.30921784 -0.032185316 -0.65022135 0.51574343
-0.10043161 0.16816205 -0.26316628 0.9375839 0.57335615 -0.21379438 1.4508346 -0.21360983
0.04000646 0.60881346 -0.28836656 -0.33650666 0.7128228 1.2241408 -0.051302783 -0.030719338
0.101600476 0.67105055 0.5387553 -0.12239324 -0.033606857 -0.24929726 1.1827323 0.22340307
-0.097814575 0.6677614 0.5001401 0.31660205 0.86423445 0.53034765 0.6120844 -0.3634577
1.4004613 -0.12861948 0.5916875 -0.08008669 -0.09892051 1.6421167 -0.29097587 1.1916337
0.08082053 -0.0742233 -0.23196141 0.22592674 -0.016093712 -0.12819007 -0.035964806 1.5910401
-0.29442108 -0.13312934 -0.1336009 1.2477081 2.9424696 -0.11244981 -0.07165946 -0.10231224
1.2278148 -0.14540423 -0.06269592 -0.019197496 -0.33168292 -0.13016075 -0.1071617 1.5351717

sequential_3_1/dense_10_1/BiasAdd/ReadVariableOp f4 [16]
00000000: d743 23bf 2b5d 4a3f f27b 6f3e 594c 28bf
00000010: 705c 39bf 9631 64bd 2bd9 e83d c4ad 6c3f
00000020: 0fb8 613f bc3f 7c3e 8cb7 2abf 48cf 663d
00000030: c236 71bd 0fa6 5a3f fab5 3dbf bb4a 463e
-0.6377539 0.79048413 0.23387125 -0.657415 -0.72406673 -0.05571135 0.113695465 0.92452645
0.88171476 0.24633688 -0.6668632 0.056350023 -0.05889011 0.85409635 -0.741058 0.19364445

sequential_3_1/dense_11_1/BiasAdd/ReadVariableOp f4 [3]
00000000: 0f01 a1bf 74b5 f53f 1215 bebf
-1.2578448 1.9196 -1.485018

sequential_3_1/dense_9_1/BiasAdd/ReadVariableOp f4 [32]
00000000: c668 933f 639b 8bbd 6b7b 3e3f ee6d 12bf
00000010: 044a 22bf 11fb 843f 7451 81bf 6ffb 793f
00000020: 0000 0000 7ae0 c4be 74d1 68bd d988 6c3d
00000030: 01b1 e9be 512e 6ebf 0ef6 c03c 7fa7 a63f
00000040: c7b1 34bd 47bf 31bf 6a57 49bf 6ead 983f
00000050: 65f9 0740 0000 0000 6f65 52bf 0000 0000
00000060: db24 7b3f b795 0fbf 5474 1dbf 6e44 27bf
00000070: 3fc0 5ebf ee94 50bf 47e8 2fbf 2b6d 8d3f
1.1516349 -0.06816747 0.7440707 -0.5719899 -0.6339419 1.0389119 -1.0102983 0.9764928
0.0 -0.38452512 -0.056840375 0.057747696 -0.45642856 -0.93039423 0.023554828 1.3019866
-0.044114854 -0.6943249 -0.7864901 1.1927927 2.1245968 0.0 -0.82186025 0.0
0.9810311 -0.5608782 -0.6150563 -0.6533879 -0.87012094 -0.8147725 -0.687138 1.104894

sequential_3_1/dense_9_1/MatMul f4 [32, 10]
00000000: d43c 1ebb ecac 673d 47a0 b6be 2dda 9abe
00000010: 6ffe 85be e5e4 e2be 3241 3abc 0829 bcbd
00000020: c0df a7bd 2515 bf3d 0e8e 71be 5366 aabd
00000030: 9999 aebe 8efd e13c d532 2d3e 49ea 373e
00000040: b6d0 20be 9a8d 82be ef71 7cbd c531 08be
00000050: 2c79 9bbe c592 a53b d68a 0b3e 5da9 8bbd
00000060: 966c a73d e448 e9be 2a90 183e b639 683e
00000070: a95e eebc d1f6 a0bd 75ef 44be c487 f5bd
00000080: f6a2 073e bc33 ff3e 0c09 503e 056e f33e
00000090: 07a3 a8be 7bfa a33c c426 c1bb 53d4 2a3e
000000a0: 1a5d 07bd 9959 283d 82ff f13d ab2f 573e
000000b0: e8d3 8bbd c50c d83e 939d 103e da62 55be
000000c0: 2f87 37bd 8db4 203d ef0f 7bbd c47e 223e
000000d0: fb60 88be 40b3 c4be f279 ecbe 6959 21be
000000e0: 38e1 143e 1a10 06bf 30cd 4bbd 8b92 28be
000000f0: 8aa5 583e 62a8 493c 8245 c03e 3941 a6bd
00000100: 2880 b63e e82f 88bb 04f2 4ebc 010c 2b3d
00000110: ee6f d63b fd20 833d b053 9c3d baf5 22be
00000120: ca28 f5be 6f89 853d 99ea ae3d 1d20 02bf
00000130: 6660 1cbe 836c 623e 3933 98ba 1adb 563d
00000140: b479 babe 200a 14bd b884 82bd 955e 873e
00000150: 8d8f 86be aa01 2cbe 58d7 08bd 3d25 15be
00000160: 2eed 123e 8ab5 a0be 5a99 55be feca 6abc
00000170: 0bfe 22bc 88d8 e73e 1076 943e 4255 a63e
00000180: 6ad9 56be 478d 823d d363 dd3d 5710 db3d
00000190: 0e90 893e 25eb 9bbd 2856 fc3d 08a4 9f3d
000001a0: 18f1 08be 3816 96be 3b56 b0bd 517c 0cbd
000001b0: ef68 61be cfa1 5abd 3ef7 c13e 658f a43d
000001c0: 71c4 1c3e 8ec5 e83d ce85 aabe b673 1fbd
000001d0: e8e9 ed3d 6282 acbf 5465 8dbc e366 a9bd
000001e0: 73d3 63bd 15bd 69bc 7b23 a0bc ab9c e53e
000001f0: 5bf1 023f 549f a53d 2ab1 f43d de02 2abe
00000200: c5f0 bb3d de2f 3fbe f823 bebc d037 40bd
00000210: 5dc0 bf3e 1b7d 9d3e b5ce a63e de78 643e
00000220: 15c5 59be e57f cb3b 30f5 00be f8aa d7bd
00000230: 075d 8fbe e5af 8f3c 4d0f 393d d73c 213e
00000240: e1f4 ab3e d5fd 7abe e977 c13e 1adf 8c3e
00000250: 13d0 db3d 72bb d5be 4cc6 8bbe 1d1d 3c3e
00000260: 859a 01be a7b1 1ebf 2f95 21bf e4bd c1bc
00000270: 56ac b4bc 2210 99be 78c1 31be f1fe b43d
00000280: 8722 31be 8515 babe fe21 a23e 51a5 54be
00000290: e67d c6bd 4fd0 96be 4147 92be b34a 633c
000002a0: a220 9d3e f2fd b7be 0895 353e 0fac 9bbd
000002b0: ec62 2a3d 460a 663d d168 903e 30dc 013d
000002c0: e010 ecbd 8bab 8c3d 92b5 3e3e 5502 fd3d
000002d0: 9f82 1b3e 572f 083e e353 4d3e 2dc7 563e
000002e0: 5f28 a73e 67ed 82bd 6170 933e 9e2c babd
000002f0: cbeb 7f3d 4d0b 0c3d 7898 823e 593e b13e
00000300: 29b9 11bf 9e76 32be 51c9 08bf ea9f 08bf
00000310: 1ad8 cbbd 567a e2be 139d 5abd 0db2 bd3e
00000320: efc9 adbe 5f90 3e3f ca55 11bf d400 3dbf
00000330: e958 62bf c25a 46bf abc1 9fbd 8ca3 4dbe
00000340: 522e 42be fd14 e93d d01e 96bd 0930 40be
00000350: 5c9e a73d b010 52bd c053 28bc 18cb 73bd
00000360: 4e27 87be 00bd 90bc 04bf 9ebd 84cb a3bd
00000370: 9c04 5b3e 740d 19be 1373 e03e fbbd bc3e
00000380: 727e d8bd af72 a93e 0daf bfbc 19ca 9dbd
00000390: 8248 b7bd 8da9 b8bd 9a60 adbe 2887 b9bd
000003a0: cfbd 903e e076 84bd c0cf 4b3c b2af 75be
000003b0: ebe4 56be 24ab b8bd a8f6 b0be efb5 72be
000003c0: 1cec b9bd c0c7 bb3d 53bd 823d fe5c 10bf
000003d0: dba7 f5be 8bef d5be 3783 963e 37ca 613e
000003e0: 3fbf 1fbe 2bff c4bd d253 bf3c db89 7d3d
000003f0: 1e87 613e f85b 853d c996 a33e 5dee a53e
-0.0024145143 0.056561396 -0.35669157 -0.3024458 -0.2617068 -0.44315258 -0.011368083 -0.091875136
-0.08196974 0.09330205 -0.23589346 -0.08320298 -0.3410156 0.027586725 0.16913922 0.17960466
-0.15704617 -0.25498658 -0.061632093 -0.13300236 -0.30365884 0.0050528967 0.1362718 -0.06819413
0.08175008 -0.45563424 0.14898744 0.22678265 -0.029097872 -0.078595765 -0.1923197 -0.11988786
0.13245758 0.49844158 0.20315951 0.47544876 -0.3293688 0.0200169 -0.005894514 0.16682558
-0.033047773 0.041101072 0.118163124 0.21014278 -0.06827527 0.42197242 0.1412261 -0.2083849
-0.044806655 0.039234687 -0.061294492 0.1586867 -0.2663649 -0.38418007 -0.46186787 -0.15756764
0.14539039 -0.5236832 -0.04975623 -0.16462152 0.21156898 0.012308212 0.3755303 -0.08117909
0.3564465 -0.0041561015 -0.012630943 0.041759495 0.006544105 0.064027764 0.076331496 -0.1591405
-0.47882682 0.06520354 0.0854084 -0.5083025 -0.15271148 0.22111706 -0.0011611945 0.052455045
-0.36420977 -0.03614247 -0.0637297 0.26439348 -0.26281396 -0.1679751 -0.033408493 -0.14564987
0.1434829 -0.31388503 -0.2085928 -0.014330624 -0.009948264 0.45282388 0.28996325 0.32486922
-0.20981374 0.06374603 0.108100556 0.10696476 0.26867718 -0.0761321 0.123211205 0.07794958
-0.1337322 -0.29313827 -0.08610197 -0.034298245 -0.22012685 -0.05337697 0.37883943 0.08035163
0.15309311 0.113658056 -0.3330521 -0.03892871 0.1161688 -1.347729 -0.017260231 -0.08271577
-0.055621576 -0.014266272 -0.019548168 0.4484609 0.5114953 0.0808703 0.11947854 -0.16602656
0.091767825 -0.18670604 -0.02321051 -0.046928227 0.3745145 0.3075951 0.3257958 0.22311732
-0.21266587 0.0062103146 -0.12593532 -0.105306566 -0.28000662 0.017539928 0.045180608 0.15745865
0.33585265 -0.24510892 0.37786797 0.27513963 0.107330464 -0.41744572 -0.27299726 0.18370481
-0.12656601 -0.61989826 -0.6311826 -0.023650117 -0.022054832 -0.2989512 -0.17358959 0.08837689
-0.17298327 -0.36344543 0.3166656 -0.20766188 -0.09691982 -0.29455802 -0.28569987 0.01387279
0.3068896 -0.35935932 0.17732632 -0.07601177 0.041598246 0.05616214 0.2820497 0.031704128
-0.11526656 0.06868657 0.18623951 0.123539604 0.15186547 0.13299309 0.20051531 0.20974417
0.32647988 -0.06392937 0.28796676 -0.09090541 0.06248073 0.034190465 0.2550695 0.3461788
-0.56923157 -0.17428061 -0.53432184 -0.5336901 -0.099533275 -0.4423396 -0.053372454 0.37049904
-0.33943126 0.7443904 -0.5677153 -0.7382939 -0.88416916 -0.77482235 -0.07800611 -0.2008192
-0.18962982 0.11380956 -0.07330096 -0.18768324 0.081845015 -0.051285446 -0.010273874 -0.059519857
-0.26397175 -0.017668247 -0.07751277 -0.07997802 0.21388477 -0.14946538 0.43837795 0.36863694
-0.105709925 0.3309531 -0.0233989 -0.07704563 -0.08949377 -0.09016714 -0.33862764 -0.09058982
0.28269812 -0.06467986 0.012439668 -0.23992804 -0.20985763 -0.090170175 -0.34563184 -0.23702215
-0.090782374 0.09168959 0.06383767 -0.56391895 -0.47979626 -0.4178432 0.29396984 0.22049795
-0.15600298 -0.09618982 0.023355398 0.061899047 0.220242 0.06511682 0.31950977 0.3240842
